model/model.pth (torch, 17216 bytes, 4 tensors)

linear1.weight f4 [256, 11]
000000 8f b3 2d be d2 29 b2 be 21 ba 28 3f eb b0 96 3d
       -0.16963027 -0.3479753 0.6590901 0.07357963
000010 ec a4 12 be c4 91 a2 be 17 23 86 bd 16 ae 11 be
       -0.14320725 -0.31751835 -0.065496616 -0.14226565
000020 fc be 18 be ef 3b b8 3e b8 9e 6c 3e 16 a7 d7 3d
       -0.14916605 0.35983226 0.23107421 0.10529916
000030 31 19 01 bd 08 53 a5 bc c3 e5 b4 be cb c4 49 3d
       -0.031518165 -0.020181194 -0.35331544 0.049259942
000040 99 03 1e be 6e b6 44 be bb 23 2b 3f e3 5a 8a 3e
       -0.1543106 -0.19210216 0.66851395 0.27022466
000050 a9 c3 0c 3f f0 ad 01 3f 20 97 a8 be 14 97 1a 3e
       0.54986054 0.5065603 -0.329278 0.15096694
000060 70 b6 1e bf 22 13 3c 3d f6 2c ef bd e0 d7 5d 3c
       -0.6199713 0.045916684 -0.116784975 0.013540238
000070 98 b4 4c 3d 79 a2 ac 3d 4c 76 07 3e dd 6a d6 be
       0.049976915 0.08429427 0.1322872 -0.41878405
000080 b8 29 95 be 16 e9 83 3e 9b ae 5b be a6 2f 3b 3e
       -0.2913339 0.25763768 -0.21453325 0.18279895
000090 a4 bc 75 3e 7b bf b3 be 0e 31 00 bf 9b bb de be
       0.23997742 -0.35107026 -0.5007485 -0.43502507
0000a0 50 81 d3 be 3e 1b b7 be 46 5f 28 3d 8f fa 4a 3e
       -0.41309595 -0.35762972 0.041106485 0.19822143
0000b0 7d 05 2e bd 44 81 77 3e 1d a3 57 3c 4d 97 43 bc
       -0.042485703 0.24170405 0.013161448 -0.011937928
0000c0 02 db 34 bd 90 ae 42 be 1f d8 b9 bd 11 78 17 be
       -0.044154175 -0.19011903 -0.09074425 -0.14791895
0000d0 7e 70 94 bd 42 48 fc 3d aa 45 66 be 4b 45 3e 3e
       -0.07248019 0.123184696 -0.22487512 0.1858112
0000e0 e7 2c f6 3e 9e ed 53 3f cb 57 83 3c 33 e0 c6 be
       0.48081133 0.8278445 0.016033074 -0.38842925
0000f0 8e 3c 10 3d bc e1 4e 3e 84 12 62 be a7 94 de be
       0.035214 0.20203298 -0.22077376 -0.43472788
000100 21 5c 23 3d 91 25 9e be f5 0a 27 3f ba 8f 94 be
       0.039882783 -0.30888036 0.65251094 -0.29015905
000110 55 32 b9 3c f4 f5 0d 3e 84 22 fd 3e aa 0f ec be
       0.022607008 0.13863355 0.49440396 -0.461057
000120 b9 ae 3c 3e bb 88 98 bd 6a d8 96 be 71 cc 07 3f
       0.18426026 -0.07447954 -0.29461986 0.5304633
000130 8f 7f d3 bd 7a 18 65 3d f9 3f 78 3e 40 7d b0 be
       -0.10327064 0.055931546 0.24243154 -0.34470558
000140 07 bf 22 be 89 b3 69 be a0 a3 2e be 21 70 e3 be
       -0.15893184 -0.22822393 -0.17054605 -0.44421485
000150 28 fb 06 be a7 0f 36 be f1 e4 26 be 55 16 de bd
       -0.13181746 -0.17779408 -0.16298272 -0.10844103
000160 83 9f 2e be 49 e9 bd 3c fb 30 93 be ce 45 8e be
       -0.17053036 0.023182528 -0.28748307 -0.27787632
000170 0d 9b 80 be f4 ee 33 bd 12 af 13 be df 46 84 be
       -0.25118294 -0.043929055 -0.14422253 -0.2583532
000180 88 7c a2 3d 28 31 fd 3d 03 7b 36 3d a4 f0 f6 3d
       0.07933909 0.123628914 0.044550907 0.12057617
000190 73 9a 63 3e 1b 95 86 3e aa e2 cb 3e 95 91 bd be
       0.22226886 0.26285633 0.39821368 -0.37025133
0001a0 02 0d 14 be ae df 2d 3e ad 9f 6b be 3f ac 8e 3e
       -0.14458087 0.16979858 -0.2301013 0.27865788
0001b0 8c 22 42 bf 14 1b 4f bf 1c 45 a1 3e 14 bc c8 3e
       -0.75833964 -0.8090069 0.3149804 0.39205992
0001c0 d2 ab e0 3e 57 8b 4c 3e 9c 6a f8 3d 4f 54 32 3e
       0.43881088 0.19975029 0.12129709 0.17414974
0001d0 e2 95 16 3e 93 26 8a 3e ec a9 81 3e d9 61 83 3e
       0.14705613 0.26982555 0.25324953 0.2566059
0001e0 4a e9 4c 3e 97 ef 86 3c ca d9 db be 94 24 75 3d
       0.20010868 0.016471667 -0.42939597 0.059849337
0001f0 50 b1 b9 3e 56 3d ca be 0e 3f 92 be eb 5f 5c be
       0.3626809 -0.3949992 -0.28563732 -0.21520965
000200 a1 c9 34 be 30 44 e2 3e 9f 43 ce be 80 d8 48 bf
       -0.1765504 0.44192648 -0.40285966 -0.7845535
000210 8e b8 9a be 51 b6 bd 3e c7 79 15 3f 38 34 e0 bd
       -0.3021893 0.3705316 0.5838894 -0.1094746
000220 41 3b 35 bf 4f ad 63 bd 20 ca bb 3b a3 68 31 be
       -0.7079354 -0.0555852 0.0057308823 -0.17325072
000230 3c dd 77 be f8 f5 52 3e a7 52 ca be fe 9b 78 3d
       -0.24205488 0.20601642 -0.39516184 0.06069564
000240 88 db 0b 3f 33 83 dc bd e4 91 b4 be 72 f4 62 3e
       0.54631853 -0.10767212 -0.35267556 0.22163561
000250 01 48 0e be 60 f3 5d be 72 bb b0 3d 73 b1 b1 be
       -0.13894655 -0.21674871 0.08629502 -0.34705696
000260 17 34 4e 3e e2 a2 8c be 24 03 3b 3d bb ff 98 3e
       0.20137058 -0.2746802 0.045657292 0.29882607
000270 73 7b 07 be 85 dd ac 3d 49 30 14 be e8 a5 61 bd
       -0.13230686 0.08440689 -0.14471544 -0.05508986
000280 b4 18 72 be a5 0c 08 bd 61 4c 3c be 86 12 b6 3d
       -0.23642236 -0.033215184 -0.18388511 0.08890252
000290 1c 2f 32 be 97 35 41 be dd be 2b be 44 65 80 be
       -0.17400783 -0.18868099 -0.16772027 -0.2507726
0002a0 48 07 38 3e bc 78 0e be aa 53 60 3e 22 b6 6b 3e
       0.17971528 -0.13913244 0.21906915 0.23018697
0002b0 c6 25 af bd 91 b7 35 3c ca 64 e8 bd 7e 5d 88 be
       -0.085521266 0.011091129 -0.11347349 -0.2663383
0002c0 ec 8b 8c 3d 8e 6b fb 3d 50 ad 1d bf fe fa f2 bd
       0.068626255 0.12276374 -0.6159258 -0.11864279
0002d0 51 b7 46 be fd cd ac 3d 8f 15 98 3d a8 83 3c bd
       -0.19405867 0.08437727 0.07425987 -0.046023995
0002e0 1e 67 97 bd 8f cd d9 be d0 10 50 be 05 36 20 bf
       -0.07392715 -0.4253964 -0.20318913 -0.6258243
0002f0 c8 b0 46 3f 07 93 38 3e 2a e2 99 bc 59 c0 d8 3b
       0.77613497 0.18024836 -0.018784601 0.0066147265
000300 ce 41 6f 3e d0 a7 3a bf 19 64 41 3e dc bb 1f bd
       0.23364946 -0.7291231 0.1888584 -0.038997516
000310 7f ae 38 3e f7 e8 ee be 43 b7 da 3e 2d 05 09 bf
       0.18035315 -0.46662113 0.42717943 -0.5352352
000320 50 92 94 bd 44 c1 ce 3e 32 80 93 3e 87 3d 75 be
       -0.072544694 0.40381825 0.28808743 -0.23949252
000330 84 f3 19 be 7d e7 e5 be 31 9c 01 bf 50 4b 7f 3e
       -0.150343 -0.44903174 -0.50628954 0.24931073
000340 20 e2 27 be d2 6d 87 3d 92 94 ed 3d d6 b7 0a bc
       -0.16394854 0.066127434 0.11600603 -0.008466681
000350 aa 5d 89 be 3f 95 87 bd fd 0b 38 be 4a ff cf 3d
       -0.26829273 -0.06620263 -0.17973323 0.101561144
000360 11 fb 6f 3d 33 46 85 bd d0 9c 7e 3d 66 d3 c5 bc
       0.058589045 -0.0650753 0.062161267 -0.024148654
000370 13 eb 23 3f 2a c4 1a 3f 29 4c 0f bd 0f 04 c4 bc
       0.6403057 0.6045557 -0.03498474 -0.023927717
000380 f1 62 f5 be 86 2c 7a bd 67 88 67 be 37 3f c1 be
       -0.4792705 -0.061077617 -0.22610627 -0.37743542
000390 28 f9 cd bd c5 13 19 3e 7c e7 a4 be ba 92 d5 be
       -0.100572884 0.14948948 -0.3220786 -0.41713506
0003a0 05 71 07 bc ae a5 67 3c 50 d6 8c be d0 ff 7a be
       -0.008266692 0.014138622 -0.27507257 -0.24511647
0003b0 8f c6 91 be 12 31 39 3d 1b 9f ec be b3 ea cb be
       -0.284718 0.045212813 -0.46215138 -0.398275
0003c0 a0 08 b7 bd 0a 9e 23 3e e0 aa dc 3d 58 f5 fb bd
       -0.08937192 0.15978256 0.10774779 -0.12302655
0003d0 b9 0b 01 3e 2e 59 56 be 4e 10 a6 bd a0 31 99 3d
       0.12602128 -0.20932457 -0.081085786 0.07480168
0003e0 c6 21 fe 3d 73 f6 50 be 84 b7 73 be 76 af f3 bd
       0.124087855 -0.20406513 -0.23800474 -0.11898701
0003f0 99 63 43 be 4f 3c b7 3e 92 7a 5c bf 4f 17 ac bd
       -0.19080962 0.357882 -0.8612453 -0.08402883

linear1.bias f4 [256]
000000 da 6e b6 be c6 56 9b be a9 b3 ac be e8 bb 50 bc
       -0.35631448 -0.3033964 -0.3373082 -0.012740113
000010 0e bb b6 be 28 10 44 be 74 98 03 be 9a d0 21 be
       -0.35689586 -0.19146788 -0.12851125 -0.15802231
000020 cb 94 3e be e1 5e 51 be 66 5f 11 bf f2 ed 41 be
       -0.18611448 -0.2044635 -0.5678619 -0.18938425
000030 f7 55 8b 3d 9b 62 9d be fb 1a a5 be 23 fc 91 be
       0.06803506 -0.30739293 -0.32247147 -0.28512678
000040 35 b6 d6 3d 15 d7 85 3e b1 af 65 be 2d b9 d6 be
       0.10483972 0.26140657 -0.22430302 -0.41938153
000050 36 02 d6 bd 27 28 a3 be 16 af 9b be a5 60 3d 3e
       -0.104496405 -0.3186657 -0.30407017 0.18493898
000060 b3 d8 3f 3d 07 17 27 3d 87 b8 25 bd 5c 93 c1 be
       0.04683752 0.040793445 -0.040459182 -0.3780774
000070 81 e2 9a be cb 6d 26 be ae 9e 0d be 87 f0 c5 bd
       -0.30250934 -0.1625282 -0.13830063 -0.096650176
000080 e1 7b 6b 3e f5 c4 2f be 5a e7 9a 3e 12 86 e9 bd
       0.22996475 -0.17164977 0.30254632 -0.11402525
000090 cd ed 15 be f1 2d 04 be b9 8d bb be 60 14 a7 bd
       -0.14641495 -0.1290815 -0.36631563 -0.08158183
0000a0 dc c2 55 3d b7 3c 95 bd 4d cd e3 be 29 10 b0 be
       0.052187786 -0.07286971 -0.4449257 -0.3438733
0000b0 45 50 8e bc 06 a1 2e be 13 4d 9e 3e b8 0f 45 be
       -0.01737226 -0.17053613 0.30918178 -0.19244277
0000c0 94 c2 8a bd 43 b9 c0 be 1d 7a 8a be 7b c0 27 be
       -0.06775394 -0.37641343 -0.2704629 -0.16382019
0000d0 1e 39 d7 bc f2 b5 56 3e 0a b2 cb be e7 75 ca bd
       -0.026272353 0.20967844 -0.3978427 -0.09885769
0000e0 b0 4e 01 3f 87 eb c0 3e 55 8e 4a 3f 7e d3 3f be
       0.5051069 0.37679693 0.7912343 -0.18733022
0000f0 a2 7a ab be 27 3c ac be 3b 82 93 be c2 c4 c7 be
       -0.33492 -0.33639643 -0.28810295 -0.39017302
000100 68 af 0a 3e ac 35 d0 bc 88 ef 8b be 4b b1 e5 be
       0.13543475 -0.025416218 -0.27331185 -0.44861826
000110 1d d7 84 be d3 99 f6 3d 93 02 fc bd c4 1d c8 ba
       -0.25945368 0.120410584 -0.123051785 -0.001526766
000120 b1 b2 aa be 6f 36 46 3e 09 9c 7a be 1c 68 fb 3d
       -0.33339456 0.19356702 -0.24473585 0.12275717
000130 f5 4b 24 be 46 b1 3d be c1 1a b7 bd b1 c4 c7 bd
       -0.160446 -0.18524656 -0.0894065 -0.09754313
000140 2e b0 c0 be e4 93 41 be de 69 76 be 1e ab 79 be
       -0.37634414 -0.18904072 -0.24063823 -0.24381682
000150 b0 b8 03 be a3 b6 22 be ac f9 d5 be 83 1b 95 bd
       -0.12863421 -0.15889983 -0.41792047 -0.07280638
000160 25 50 a7 be 4c b5 99 be 90 a1 71 be 06 10 ce bc
       -0.32678333 -0.3002113 -0.23596787 -0.025154125
000170 1b b6 d3 3e 8b 42 96 be 9c 60 40 bb 79 c7 e7 bd
       0.41349873 -0.29347643 -0.0029354459 -0.11317343
000180 a4 3f 44 3e 5c fb aa bb 0e d1 85 be b6 64 76 bd
       0.19164902 -0.0052179527 -0.2613606 -0.06015464
000190 27 2e bf be 3b d8 b1 be 96 35 4d be 0d a4 fa 3b
       -0.373399 -0.34735283 -0.20039973 0.007648951
0001a0 d2 e0 b0 3c bc 55 cf 3d c9 ec cb be d0 19 3c be
       0.021591578 0.101237744 -0.3982909 -0.18369222
0001b0 07 11 7f bc 15 85 57 3b 5c 56 5f be 31 cf 8c 3e
       -0.0155680245 0.003288572 -0.21810287 0.27501824
0001c0 e5 ac 17 be ff a2 98 3d 41 90 b8 be 9e be 3d be
       -0.14812048 0.07452964 -0.36047557 -0.18529746
0001d0 04 54 9c be 73 9e 7e be b8 20 a1 3d c9 79 61 be
       -0.3053285 -0.24865131 0.07867569 -0.22019114
0001e0 ab 6a bb 3e 74 a3 2c be 64 82 6b be a5 44 12 bf
       0.3660482 -0.16859227 -0.22998959 -0.57135993
0001f0 47 3f a1 be 98 7a 76 be f6 db 5a be 0d 6c 06 be
       -0.3149359 -0.24070203 -0.21372971 -0.13127156
000200 f3 69 88 be c6 62 b1 bd bd 64 e8 bd aa 71 67 be
       -0.26643333 -0.08661418 -0.11347339 -0.22601953
000210 40 78 a2 be 53 50 af 3e 80 d2 8e be b4 fa 98 be
       -0.31732368 0.3424097 -0.27894974 -0.2987877
000220 52 74 86 be b1 0d 50 be bc be 3c be a1 ae eb bd
       -0.2626062 -0.20317723 -0.18432134 -0.11507917
000230 b6 e7 2f be c2 b4 60 be 65 b9 61 bc 39 05 ad be
       -0.17178234 -0.21943954 -0.013777112 -0.33793047
000240 73 cc e7 be 30 25 97 3d ae db 5b 3f 20 25 2b 3d
       -0.4527317 0.0738014 0.8588208 0.041783452
000250 ae 14 34 be 40 1f 42 3e d4 f1 a2 3d ba 27 43 3e
       -0.17586014 0.18957233 0.07956281 0.19058123
000260 15 d0 47 be 03 42 da bd 0d d6 59 be 70 72 bf be
       -0.19512971 -0.10657122 -0.2127306 -0.37391996
000270 c2 e7 51 bd 33 a2 4e be 69 31 08 be 4b 9e 08 3d
       -0.051246412 -0.20179062 -0.13300098 0.033354085
000280 a4 ea 9a 3d 6f d9 23 3f 27 d2 ae be c4 8f be be
       0.075642854 0.6400365 -0.3414471 -0.3721906
000290 96 da cf 3e 42 99 86 be bc fc 6e be 8c e2 9e be
       0.40596455 -0.262888 -0.23338598 -0.31032217
0002a0 2c 85 a9 be d2 ad ae bd d4 45 bf 3e bd 05 2f 3d
       -0.33109415 -0.08529247 0.37357962 0.04273008
0002b0 68 5a 45 be a7 ed 0e be 1c fd 28 3f 9d 1c 0f 3e
       -0.19272768 -0.13957845 0.66011214 0.13975759
0002c0 0a 78 e4 3e 3d ff 42 3e a3 4c 66 bd 16 4e 58 bd
       0.44622833 0.19042678 -0.05622543 -0.052808844
0002d0 f2 35 dd be 84 67 9e be 6f d0 e5 3d 25 b1 53 3f
       -0.4320522 -0.3093835 0.11221396 0.82692176
0002e0 f9 41 ca 3d 41 0a b3 bd c4 43 24 3d 4b 1d 01 be
       0.098758645 -0.0874219 0.04010369 -0.1260883
0002f0 b7 86 8e be 7a 8c b4 be ee 23 c2 be 86 17 68 be
       -0.27837154 -0.35263425 -0.37918037 -0.22665223
000300 60 ac a0 bd 8e c4 f8 be cb d5 b5 be 1a 0d a8 be
       -0.07845378 -0.4858746 -0.35514674 -0.32822496
000310 e0 b4 d1 be 96 61 e2 be f4 3a e3 bd c0 15 93 be
       -0.4095831 -0.44215077 -0.11095229 -0.2872753
000320 e0 77 1a bd 3b 51 30 3b 2c 08 0c be 32 bb a0 be
       -0.037711978 0.0026903886 -0.13674992 -0.3139282
000330 43 be 8d bc 77 75 2f be 43 71 5f bd 2e 65 8a be
       -0.017302638 -0.17134653 -0.054551374 -0.2703032
000340 d4 ca b6 39 fc 88 04 3f 32 66 af be ec 9e 4d be
       0.00034864864 0.5177152 -0.34257656 -0.20080155
000350 b7 70 93 be 37 6d 9e be c8 77 b1 be d4 4a e7 bd
       -0.28796932 -0.309427 -0.34661698 -0.11293569
000360 be 7e 4e ba e6 74 96 be 98 8d c9 be 9c fb 93 bd
       -0.00078771624 -0.2938606 -0.3936584 -0.07225725
000370 e2 78 a5 bd 95 56 08 be b1 c2 a6 bc 35 50 3d be
       -0.08079697 -0.13314278 -0.020356508 -0.18487628
000380 b8 de 21 be e5 73 54 3d 6a f9 9e bc 32 40 01 3e
       -0.15807617 0.05186834 -0.01940604 0.12622145
000390 2c d9 80 3e ab 9c 9b be 40 da 18 be e1 88 dc bd
       0.2516569 -0.30392966 -0.14927006 -0.10768295
0003a0 9c 71 30 be 0a 61 4b 3e 9f c2 ba be 94 0a 77 be
       -0.17230839 0.19861236 -0.3647661 -0.24125129
0003b0 da e5 4d 3d ca 04 36 be df 78 7f 3d be 25 84 be
       0.05026803 -0.17775264 0.06237113 -0.25810045
0003c0 7f 92 06 be 18 99 14 3f 4d 9e 87 bd f0 67 11 bf
       -0.13141821 0.580461 -0.0662199 -0.5679922
0003d0 2b 0c 60 3e f4 75 0d be 39 75 5a be 54 cd 80 3e
       0.21879642 -0.13814527 -0.2133378 0.25156653
0003e0 cf 13 96 be f6 94 2e bd 07 39 3d be 08 44 7d bc
       -0.29311988 -0.04262253 -0.18478785 -0.015458114
0003f0 12 7b 9e bd 9f 31 1b 3f d1 7a 95 bd 08 19 f5 3e
       -0.077383175 0.6062259 -0.07298816 0.4787066

linear2.weight f4 [3, 256]
000000 c9 0f 65 bc d6 47 82 be b1 a9 2a 3c 8c 2b 28 be
       -0.013980814 -0.2544543 0.010416434 -0.16422862
000010 7b f1 92 bc b1 38 e7 bc df b6 96 be d2 5a c1 3c
       -0.017937412 -0.028225275 -0.29436395 0.023602877
000020 3c 97 b8 bb 24 d6 d2 be ce 5d 3d bb a9 06 63 be
       -0.005633263 -0.41179 -0.0028895023 -0.2217051
000030 23 92 63 bc 3a 48 8a bd 8f 49 c5 bc e9 3e 45 bd
       -0.013889822 -0.067520574 -0.024082927 -0.0481557
000040 fe e1 c8 bc 7c dd ac 3e 08 de 32 3b 19 e9 2a 3b
       -0.024521824 0.3376273 0.0027292985 0.0026078878
000050 78 b3 81 be 1a 33 82 3a 62 aa e6 3c e9 bc 7f 3e
       -0.25332236 0.0009933442 0.028157417 0.24974407
000060 ab 54 0a 3f ce 9f 26 be 76 8f 85 be 00 ee 7d bd
       0.54035443 -0.16271898 -0.26086015 -0.061994553
000070 e5 62 7b 3d 78 9a e5 bd c0 0d bf bd bd f0 31 be
       0.06137361 -0.11211103 -0.093287945 -0.1737699
000080 a4 73 cb 3e d8 a6 57 3e 79 c1 39 3e eb 76 87 3e
       0.39736664 0.2105974 0.1814021 0.26457915
000090 0f 0d 04 be d4 38 de be cd b8 b4 bd 08 00 5a 3e
       -0.12895606 -0.4340273 -0.088243105 0.21289074
0000a0 b0 4d a2 3d 1e ec 2a 3e 6c a2 49 bd 88 32 81 bc
       0.07924974 0.16691634 -0.049227163 -0.015771165
0000b0 7b fa 90 bd c2 98 8e bd 8a 3f a0 3e 97 90 1d be
       -0.07079025 -0.0696273 0.31298476 -0.15387188
0000c0 8a c2 f9 3c b1 6e a3 bc 7b fb 5f bd 4e 56 d0 3e
       0.030488271 -0.019950243 -0.05468319 0.40690845
0000d0 89 87 bc 3e 8b 40 19 3e a6 a1 49 bd 74 71 95 bd
       0.36822155 0.14966027 -0.049226426 -0.0729703
0000e0 c3 d0 b8 3e c3 52 d8 3e ae eb c7 3e 90 bf 07 3d
       0.36096773 0.42250642 0.39046997 0.033141673
0000f0 c2 e1 82 bd 58 19 02 be 32 16 3d be 79 81 08 3c
       -0.06390716 -0.1270498 -0.18465498 0.00833165
000100 2f e2 d5 3e 12 cd 5f 3d 76 5c eb bd 50 51 fd bd
       0.41774127 0.05463893 -0.11492245 -0.12369025
000110 53 94 69 bd 98 e0 d2 be cc 64 de bd f6 38 40 bd
       -0.05702622 -0.41186976 -0.10859069 -0.046929322
000120 54 9c f9 bb ef e3 3a 3f ad d2 84 3d 5e 05 b4 3e
       -0.0076175127 0.7300405 0.06485496 0.35160345
000130 db 4f 77 be 8c 90 2b bd 48 1c bb bd 84 2e 58 bf
       -0.24151556 -0.041885898 -0.091362536 -0.8444598
000140 d6 37 c6 bd fd c7 87 bd 87 13 94 bd ea 2d bb bd
       -0.096786186 -0.066299416 -0.07230287 -0.09139617
000150 85 eb 55 bd 52 b5 b6 be a8 56 7c be 32 1a fc 3e
       -0.052226562 -0.3568521 -0.24642432 0.49238735
000160 19 27 15 3c 7b 78 79 3d 2a 02 3e 39 ae d0 9a bd
       0.00910356 0.060905915 0.00018120618 -0.07559334
000170 c1 60 ac 3e 9e ec 6d bd 2f ce 26 be 66 05 93 3d
       0.33667567 -0.058086984 -0.1628959 0.07178764
000180 df 81 b4 3e 28 fe ec be 84 5f e5 3c 6a 9e 73 bc
       0.35255334 -0.46287656 0.027999647 -0.014869312
000190 0a be 74 bd 71 4d 3d bd 65 d4 2d be 54 13 e4 bc
       -0.059751548 -0.046216432 -0.16975553 -0.027841248
0001a0 71 82 ed 3c 37 46 77 3c c2 5e 3f be d9 ae b6 bc
       0.028992863 0.015092424 -0.18688491 -0.02230017
0001b0 5b 18 86 be 8f e7 3e 3e 89 90 2f be bc 8a f9 3e
       -0.26190457 0.1864302 -0.1714498 0.48738658
0001c0 02 53 e8 3d 8d 0a bc 3e de 3e 91 be ef 6e 2b be
       0.113439575 0.367268 -0.28368276 -0.16741537
0001d0 8c 1e 00 be a1 c0 51 bd b0 b2 38 3e b0 6b 30 3d
       -0.12511653 -0.051209096 0.18036914 0.04307145
0001e0 8f 55 aa 3e f2 6e d4 bc 1a 4e 0d 3d 51 ab 12 bc
       0.332684 -0.02593181 0.03449831 -0.008951978
0001f0 09 a7 84 bd e6 92 37 be 5c 44 a6 3b 48 d5 1c be
       -0.06477172 -0.17927131 0.005074067 -0.15315735
000200 e1 a9 10 be 71 85 12 3f 7a bc 5b be 32 b0 93 bd
       -0.14127304 0.57234865 -0.21458617 -0.07211341
000210 62 a3 8a bd 0b 4c b6 3b b8 e5 55 3c a3 29 9d be
       -0.06769444 0.0055632642 0.0130552575 -0.3069583
000220 e2 7e 4e 3d 96 b2 a5 3c 1d 16 84 3d d1 04 0c 3f
       0.050413974 0.020226758 0.0644953 0.5469485
000230 35 01 b8 be b8 b5 3d be a8 89 57 3c ba 3c 67 3b
       -0.3593842 -0.18526351 0.013155378 0.0035283999
000240 f8 cd 09 bd e1 c0 18 bd ac 55 e1 3e 14 d9 75 be
       -0.033643693 -0.03729332 0.44010675 -0.2400859
000250 be 59 a7 bd f7 16 d9 3d 2b 50 98 bd d2 a0 0e 3f
       -0.08171414 0.10600083 -0.07437166 0.5571414
000260 71 1f ea bd 46 31 62 3b 6f de 51 be 19 89 13 3c
       -0.11431778 0.0034514233 -0.20495008 0.009004855
000270 ff b4 76 3d c5 1c 5d 3c dd 6e 39 bd 99 8b 22 3c
       0.060231205 0.013495629 -0.045271743 0.009920978
000280 cf ba 2e 3d 7b 53 e1 3e 2d a0 0a be 07 56 bf 3c
       0.042658623 0.44009003 -0.13537665 0.02335645
000290 00 62 77 3d af f8 37 be 94 5d 00 bd be c2 2b 3b
       0.060396194 -0.17965959 -0.031339243 0.0026208605
0002a0 7c 98 cb bd a0 3e 00 bd 26 5e 96 3e f5 42 b4 3d
       -0.099411935 -0.031309724 0.29368705 0.088018335
0002b0 19 0e d2 bc 80 e6 30 3c b9 bc 8c 3e d6 03 dc bc
       -0.025641488 0.010797143 0.27487734 -0.026857298
0002c0 a8 8d 4d 3d 7c 37 4e 3e 8a 26 08 3b b2 1b 68 be
       0.050183922 0.20138353 0.0020774924 -0.22666815
0002d0 a0 2a 2f bd 64 58 20 3c 35 7c 1d 3f a4 c8 f5 3e
       -0.04276526 0.009786699 0.6151765 0.4800464
0002e0 25 09 58 be 1c 04 dd bc 82 8d d7 bd 60 3a b0 be
       -0.21097238 -0.026979499 -0.10525037 -0.34419537
0002f0 7b e5 21 be f6 6a 39 be 73 eb 35 be 32 c0 a4 3d
       -0.15810196 -0.18107209 -0.17765598 0.08044471
000300 ea a7 bc 3d 24 96 ac be 45 5a ac bd bf 45 ba be
       0.092117146 -0.33708298 -0.08415655 -0.36381337
000310 69 61 ce be 3f d9 f3 bd d4 53 8a 3d fe 99 1f 3e
       -0.40308693 -0.11906671 0.0675427 0.15586087
000320 d1 40 0c bb 29 5c 55 be 4e e9 d1 bd 79 d3 10 be
       -0.0021400938 -0.20835938 -0.102495775 -0.1414317
000330 fc 90 d0 3b 31 62 c3 3c f6 d9 8d bc cb b2 01 be
       0.0063649397 0.023850532 -0.017315846 -0.1266586
000340 ae 95 02 3f cb bb a8 3e 99 8a 9c bc c2 df c9 bd
       0.51009643 0.32955775 -0.019109057 -0.098571315
000350 11 95 96 be 19 b4 12 bd a2 a5 d1 b8 96 0c bb bd
       -0.29410604 -0.035816286 -9.996748e-05 -0.0913326
000360 87 76 ed bd 9f af 70 be eb 7a ae bc 97 38 4d bb
       -0.11594873 -0.23504494 -0.021298846 -0.0031314248
000370 a3 e7 3a 3e 17 62 81 3d d0 64 21 be a3 54 1a 38
       0.18252425 0.06317537 -0.15761113 3.6795285e-05
000380 52 dd a3 be 35 39 36 3e fd 00 05 3f 2d a4 ad 3d
       -0.32004791 0.1779526 0.51954633 0.0847858
000390 fe 38 aa 3e 16 0e 08 be 41 de a2 be 89 23 14 be
       0.33246607 -0.13286623 -0.3181019 -0.1446668
0003a0 31 de 9b bd cc 6a 90 3e 02 0d 24 bd fe b8 0c bd
       -0.07610739 0.2820648 -0.040051468 -0.03435611
0003b0 d4 43 f8 3d d0 4e 5f 3d 3a 3f c1 bd 8b dd 41 be
       0.12122312 0.05451852 -0.09435888 -0.18932168
0003c0 3e a3 7d bc 7e ce df 3e 85 8e fd 3c de 36 b1 3b
       -0.0154808145 0.4371223 0.030951748 0.005408152
0003d0 ef b5 0a 3d 7b 99 df bc 60 ab 17 be a4 7e 24 3e
       0.03386491 -0.027294865 -0.14811468 0.16063935
0003e0 d9 c0 03 3c 21 5a 49 bc 03 b2 5b 3e ac 8a b3 3e
       0.008041584 -0.012289555 0.21454625 0.35066736
0003f0 06 cf fd bd fc 44 d0 3e f4 a7 4f be 33 68 d2 3e
       -0.12393002 0.4067763 -0.20278913 0.41095123

linear2.bias f4 [3]
000000 70 be 9a 3e eb 92 e6 bd da 6c 04 be
       0.30223417 -0.11258491 -0.12932149
